Database/model_state_MFM650.pth (torch, 19099 bytes, 12 tensors)

models.0.covar_module1.raw_mixture_weights f4 [4]
-0.85591894 -1.8485919 -2.1569736 0.04704384
00000000: 811d 5bbf a99e ecbf db0b 0ac0 0bb1 403d

models.0.covar_module1.raw_mixture_means f4 [4, 1, 4]
325.19937 209.9171 -0.25679907 0.6180095 467.4583 119.05212 6.8028865 0.20544316
6.583188 48.68316 1.910453 -0.63328564 193.51294 69.6771 -0.72212654 -2.6279116
00000000: 8599 a243 c7ea 5143 2b7b 83be df35 1e3f
00000010: aaba e943 af1a ee42 3fb1 d940 b15f 523e
00000020: 7aa9 d240 8ebb 4242 b989 f43f 021f 22bf
00000030: 5083 4143 ad5a 8b42 49dd 38bf b42f 28c0

models.0.covar_module1.raw_mixture_scales f4 [4, 1, 4]
0.48504877 1.5847509 -4.8356185 -5.8301544 9.357024 0.75208145 -5.2941456 -4.6691647
6.8843713 15.29656 -5.950191 -5.094649 9.0944805 -1.1063402 -4.8565054 -4.6548424
00000000: 5058 f83e 1ed9 ca3f 63bd 9ac0 a090 bac0
00000010: 5fb6 1541 6988 403f a469 a9c0 cc69 95c0
00000020: c54c dc40 b6be 7441 f767 bec0 5d07 a3c0
00000030: fe82 1141 8e9c 8dbf 7e68 9bc0 78f4 94c0

models.0.covar_module2.raw_mixture_weights f4 [4]
0.50426805 0.44408637 -0.32161006 0.45065734
00000000: b617 013f 4a5f e33e 13aa a4be 8fbc e63e

models.0.covar_module2.raw_mixture_means f4 [4, 1, 4]
527.45044 75.22358 4.0299096 -7.363781 522.61487 29.822378 7.4275723 -0.59086937
380.84808 64.80702 2.462617 -0.6705913 364.7856 121.743034 2.6558976 -0.35589612
00000000: d4dc 0344 7972 9642 05f5 8040 18a4 ebc0
00000010: 5aa7 0244 3b94 ee41 acae ed40 3743 17bf
00000020: 8e6c be43 329d 8142 849b 1d40 dfab 2bbf
00000030: 8f64 b643 6f7c f342 3afa 2940 0438 b6be

models.0.covar_module2.raw_mixture_scales f4 [4, 1, 4]
6.0830283 -0.17583051 -4.2960997 -7.8107314 28.265778 1.8379408 -4.374032 -5.6487737
7.304043 -0.33543482 -3.3150184 -6.45143 19.69459 6.1545653 -5.044224 -6.6583085
00000000: 2ba8 c240 ea0c 34be a679 89c0 83f1 f9c0
00000010: 5020 e241 a541 eb3f 12f8 8bc0 c1c2 b4c0
00000020: b8ba e940 1dbe abbe 4329 54c0 1d72 cec0
00000030: 858e 9d41 33f2 c440 486a a1c0 dd10 d5c0

models.1.covar_module1.raw_mixture_weights f4 [4]
0.31417772 0.014694242 -0.38757128 0.78646225
00000000: e7db a03e 1ec0 703c be6f c6be 9755 493f

models.1.covar_module1.raw_mixture_means f4 [4, 1, 4]
278.83597 126.97072 -0.6327622 -5.5431805 434.34964 34.52692 3.5480828 -1.5324074
17.167112 97.48762 7.991141 -1.7909602 249.20659 124.20262 -1.3996477 -0.7785917
00000000: 016b 8b43 02f1 fd42 b4fc 21bf bc61 b1c0
00000010: c12c d943 911b 0a42 ca13 6340 ed25 c4bf
00000020: 3f56 8941 a9f9 c242 6db7 ff40 2f3e e5bf
00000030: e334 7943 be67 f842 a827 b3bf c951 47bf

models.1.covar_module1.raw_mixture_scales f4 [4, 1, 4]
15.7938595 4.5472274 -4.4637704 -4.873121 53.674404 4.7010884 -4.2427278 -4.3767085
28.587524 1.3972948 -4.333713 -6.5934286 1.1820349 23.14159 -3.9874873 -4.4019394
00000000: a6b3 7c41 e382 9140 35d7 8ec0 9bf0 9bc0
00000010: 97b2 5642 516f 9640 6dc4 87c0 ff0d 8cc0
00000020: 40b3 e441 8eda b23f c7ad 8ac0 5efd d2c0
00000030: eb4c 973f fa21 b941 fe32 7fc0 b0dc 8cc0

models.1.covar_module2.raw_mixture_weights f4 [4]
-0.0873112 -0.026301447 1.1409359 1.1669958
00000000: 37d0 b2bd 2276 d7bc 300a 923f 1e60 953f

models.1.covar_module2.raw_mixture_means f4 [4, 1, 4]
5.8921757 204.61623 0.78878343 -1.601506 597.30505 223.75964 4.2275076 -2.3304088
399.37747 215.50874 5.6175737 -2.002838 67.82731 55.531628 1.3621324 -1.1569546
00000000: b48c bc40 c19d 4c43 b6ed 493f 26fe ccbf
00000010: 8653 1544 78c2 5f43 be47 8740 6b25 15c0
00000020: 51b0 c743 3d82 5743 2ac3 b340 7f2e 00c0
00000030: 95a7 8742 6320 5e42 5b5a ae3f 1717 94bf

models.1.covar_module2.raw_mixture_scales f4 [4, 1, 4]
7.1663465 -1.8611437 -6.2316003 -5.182333 4.286928 2.3638635 -3.6599033 -5.115649
1.9225167 -0.91448456 -4.0428214 -3.4923863 15.128866 -2.1825008 -3.9516304 -5.2100883
00000000: b652 e540 f539 eebf 4569 c7c0 acd5 a5c0
00000010: 842e 8940 8a49 1740 db3b 6ac0 66b3 a3c0
00000020: 0715 f63f a91b 6abf cb5e 81c0 4283 5fc0
00000030: d60f 7241 18ae 0bc0 83e7 7cc0 0bb9 a6c0
