Database/model_state_MFM250.pth (torch, 19099 bytes, 12 tensors)

models.0.covar_module1.raw_mixture_weights f4 [4]
0	0xbfb96170	-1.448286
1	0xc0162e4f	-2.3465765
2	0xbfe021f2	-1.7510359
3	0x3ea29229	0.31752136

models.0.covar_module1.raw_mixture_means f4 [4, 1, 4]
0	0x437b07c8	251.0304
1	0x4329f715	169.96516
2	0x40b37e02	5.609132
3	0xbf1dee02	-0.61691296
4	0x43227523	162.45757
5	0x435bef0b	219.93376
6	0x4055abc6	3.3386092
7	0xbfa55165	-1.2915465
8	0x43a36f2b	326.8685
9	0x42a3b170	81.84656
10	0x4020c5a9	2.5120642
11	0xc05504bb	-3.3284137
12	0x41c020c3	24.015997
13	0x428a3e3f	69.121574
14	0x40ed09bb	7.407438
15	0xbf70643e	-0.9390296

models.0.covar_module1.raw_mixture_scales f4 [4, 1, 4]
0	0x41a7240a	20.892597
1	0xbf6aa2c6	-0.9165462
2	0xc0927821	-4.577164
3	0xc0a10827	-5.032245
4	0xbf9c780c	-1.2224135
5	0x3f25f7a3	0.6483099
6	0xc0a9626b	-5.293264
7	0xc059a54e	-3.4007144
8	0x4232c4d9	44.692234
9	0x3f965a0e	1.1746233
10	0xc0a9cfc9	-5.3066144
11	0xc0c97b8f	-6.296333
12	0x3f6ecba9	0.9327951
13	0x3d74e10e	0.05978494
14	0xc093734a	-4.6078234
15	0xc0a58942	-5.173005

models.0.covar_module2.raw_mixture_weights f4 [4]
0	0xbaf63ac8	-0.0018785829
1	0x3e723d4b	0.23656194
2	0x3f1c68d8	0.6109748
3	0xbe1c200c	-0.152466

models.0.covar_module2.raw_mixture_means f4 [4, 1, 4]
0	0x41c65eaa	24.796223
1	0x42b50866	90.5164
2	0xbde8e3d1	-0.113715775
3	0xbfb2aa95	-1.3958308
4	0x43207e80	160.49414
5	0x42462ec3	49.545666
6	0x3f8f682e	1.1203668
7	0xc0134b3a	-2.3014665
8	0x4360dc92	224.8616
9	0x437085fc	240.52338
10	0x3f6c4f50	0.9230852
11	0xbf9f5bed	-1.2449929
12	0x438a1b1f	276.21188
13	0x4301e459	129.89198
14	0x3fb40964	1.4065366
15	0x3f0fa54f	0.56111616

models.0.covar_module2.raw_mixture_scales f4 [4, 1, 4]
0	0x40833e08	4.101322
1	0xbfe6d0ab	-1.803243
2	0xc09e6c07	-4.950687
3	0xc0cecaac	-6.46224
4	0x4493d642	1182.6956
5	0x3ee1d718	0.44109416
6	0xc0b408c8	-5.626072
7	0xc08ceb4b	-4.4037223
8	0xbf70eead	-0.9411419
9	0xbfe57023	-1.7924846
10	0xc0b7d404	-5.744631
11	0xbf8a3c6b	-1.0799688
12	0x41956f99	18.679491
13	0xbf888b7b	-1.0667566
14	0xc0c13c64	-6.038622
15	0xc0e82524	-7.254534

models.1.covar_module1.raw_mixture_weights f4 [4]
0	0x3f1ed183	0.6203844
1	0xbdaf97ed	-0.085738994
2	0xbe7cf093	-0.24701147
3	0x3f427a65	0.7596801

models.1.covar_module1.raw_mixture_means f4 [4, 1, 4]
0	0x43826d70	260.85498
1	0x41913bab	18.154135
2	0x40935497	4.604076
3	0xbf6e2c74	-0.9303658
4	0x438651e4	268.63977
5	0x42a98fc8	84.78082
6	0x40cd9924	6.424944
7	0xc0018eaf	-2.0243337
8	0x4275412e	61.313652
9	0x435a4635	218.27425
10	0x404aec1a	3.1706605
11	0xc0121671	-2.2826197
12	0x4406329d	536.79083
13	0x43547192	212.44363
14	0x401307d4	2.2973528
15	0xbf1b9702	-0.60777295

models.1.covar_module1.raw_mixture_scales f4 [4, 1, 4]
0	0x3fe84d86	1.8148658
1	0x406ffa6b	3.7496593
2	0xbe5702cc	-0.2099716
3	0xc0ad28b4	-5.4112186
4	0x41b355b3	22.416845
5	0x3ffb4473	1.9630264
6	0xc06db421	-3.7141192
7	0xc04622b3	-3.0958679
8	0x410c591e	8.771757
9	0x3fa05d2a	1.2528431
10	0xc061548e	-3.5207858
11	0xc0af4813	-5.477548
12	0x41f9bfc3	31.218634
13	0x40d97d20	6.796524
14	0xc06887e3	-3.6332939
15	0xc07acaa4	-3.9186182

models.1.covar_module2.raw_mixture_weights f4 [4]
0	0xbe33ba72	-0.17551592
1	0x3d8b9829	0.068161316
2	0x3ef83167	0.4847519
3	0x3f3182c9	0.6934019

models.1.covar_module2.raw_mixture_means f4 [4, 1, 4]
0	0x440c548f	561.3212
1	0x4116401d	9.390653
2	0x40f987e8	7.79784
3	0xbf4f0c4e	-0.8087815
4	0x439cefd9	313.8738
5	0x436afc75	234.98616
6	0x3fedbea5	1.8573805
7	0xbfdac7ce	-1.7092226
8	0x430f68f5	143.40999
9	0x4169b18b	14.605845
10	0x40ad38c2	5.4131784
11	0xbfd88e83	-1.6918491
12	0x4253cc58	52.949554
13	0x42e5be34	114.87149
14	0x4025619e	2.584083
15	0xbf567ed9	-0.83787304

models.1.covar_module2.raw_mixture_scales f4 [4, 1, 4]
0	0x3f5f4463	0.87213725
1	0x40fa5c33	7.823755
2	0xc07ca240	-3.947403
3	0xbf909303	-1.1294864
4	0x3e8ba87c	0.2727698
5	0xbf127d48	-0.57222414
6	0xc03e6422	-2.9748616
7	0xc067add0	-3.6199837
8	0x412e3d9a	10.890039
9	0x41d1f3d9	26.244066
10	0xc08351dc	-4.1037426
11	0xc0e56833	-7.1689696
12	0x40aca570	5.395195
13	0xc01a8f9d	-2.4150155
14	0xc00883fc	-2.1330557
15	0xc082454d	-4.0709596
