Database/model_state_MFM450.pth (torch, 19099 bytes, 12 tensors)

models.0.covar_module1.raw_mixture_weights f4 [4]
00000000: 5d37 9cbf 7177 34bf e692 2ec0 608d d1be
-1.2204396 -0.70494753 -2.727716 -0.40928173

models.0.covar_module1.raw_mixture_means f4 [4, 1, 4]
00000000: 7989 9343 aa30 9e42 96bc cb40 f2af 6bc0
00000010: 6bc5 0944 9ca0 db42 c17a 683e 493b b6be
00000020: 514b c242 87bd c442 1640 db40 0eea 8bbf
00000030: 4c74 c843 8ad5 2841 5bcd 2140 5e0c dfbe
295.074 79.09505 6.3667707 -3.6826138 551.08466 109.81369 0.22703077 -0.35592106
97.1471 98.37017 6.851573 -1.0930803 400.90857 10.552134 2.528159 -0.43564123

models.0.covar_module1.raw_mixture_scales f4 [4, 1, 4]
00000000: c69c a641 4058 973f 484f 82c0 6dbe 2dc0
00000010: 6479 b43d 9213 fb3f 80e5 acc0 ce4f 7bc0
00000020: b4ec 5b40 7edf 2a40 b2ba 97c0 85c9 e2c0
00000030: 521d 663f 9c9d 23bf aa94 8bc0 89b0 b6c0
20.82655 1.1823807 -4.072178 -2.7147477 0.08812216 1.9615347 -5.403015 -3.926746
3.4363222 2.6698909 -4.74154 -7.0870996 0.8988849 -0.6391237 -4.3618975 -5.7090497

models.0.covar_module2.raw_mixture_weights f4 [4]
00000000: 52e0 223e 4d81 533e 780b a73e 8c50 34be
0.15905884 0.20654793 0.32625937 -0.17608851

models.0.covar_module2.raw_mixture_means f4 [4, 1, 4]
00000000: 19d0 d342 2806 1a41 6ede 9d3f 664f 22c0
00000010: 94bd a443 4353 5e43 cbdd 9e40 1b3f fbbf
00000020: 02f8 9e41 9748 0143 74e4 0d41 7608 08c0
00000030: 0906 f643 d41f a042 9b4e 5940 a89d 30bf
105.90644 9.626503 1.2333505 -2.536096 329.48108 222.32524 4.9645743 -1.9628633
19.871098 129.28355 8.868275 -2.1255164 492.04715 80.062164 3.3954227 -0.68990564

models.0.covar_module2.raw_mixture_scales f4 [4, 1, 4]
00000000: 8185 2941 51c0 8c40 3583 83c0 0404 ddc0
00000010: cb69 9341 4998 0241 6fdf 7bc0 c073 ddc0
00000020: cc85 0c41 6bb1 1abf 32fc 9ec0 72dc e5c0
00000030: 4b68 6b41 20ba 733b 1aa6 a2c0 bdb6 f0c0
10.595094 4.398476 -4.1097665 -6.90674 18.426657 8.162179 -3.9355123 -6.9203796
8.782665 -0.6042697 -4.9682856 -7.18316 14.712962 0.0037189797 -5.082776 -7.522307

models.1.covar_module1.raw_mixture_weights f4 [4]
00000000: 5e33 553d 2c78 223f 67c3 443f 3655 36be
0.05205094 0.6346462 0.7686066 -0.17805943

models.1.covar_module1.raw_mixture_means f4 [4, 1, 4]
00000000: 7a87 7243 e45b 4043 7f61 1f40 cef4 6dbf
00000010: c137 5042 c2e7 8e41 8ae6 d240 29fb 29c0
00000020: 3c3b af43 abbe 9242 ed82 ef3f b570 98bf
00000030: 55b4 6143 9251 3643 e3c2 9640 1e81 85bf
242.5292 192.35895 2.4903257 -0.9295167 52.054447 17.863163 6.590642 -2.6559546
350.46277 73.3724 1.871183 -1.1909395 225.70442 182.31863 4.71129 -1.0430028

models.1.covar_module1.raw_mixture_scales f4 [4, 1, 4]
00000000: 2f84 ee43 71e2 b140 a301 1bc0 c069 a8c0
00000010: ad76 73bf d1a4 4c40 174d 0ec0 b921 adc0
00000020: 5283 713f a1f7 eb40 3e4e 64c0 3981 acc0
00000030: 8af0 1740 3b5f d640 1950 c7c0 1816 afc0
477.03268 5.558892 -2.421975 -5.262909 -0.9510296 3.1975596 -2.2234552 -5.4103665
0.94341004 7.373978 -3.5672755 -5.3907743 2.3740563 6.699125 -6.2285275 -5.471447

models.1.covar_module2.raw_mixture_weights f4 [4]
00000000: b5c2 3ebf 1f31 0ebf e8b8 8abf 215b 92bf
-0.7451585 -0.555437 -1.0837679 -1.143406

models.1.covar_module2.raw_mixture_means f4 [4, 1, 4]
00000000: 0b4d 1344 c9c8 6241 7828 b940 2bc1 f7bf
00000010: 4a05 fa43 aa2a 9f41 5ad9 8c40 e623 29bf
00000020: a196 c943 9c44 3c41 9814 a240 ce0e bb3e
00000030: f919 eb42 4b06 1643 3ab0 b040 652d 87c0
589.2038 14.17402 5.78619 -1.9355825 500.04132 19.895832 4.401532 -0.660704
403.1768 11.76675 5.065014 0.36534733 117.55073 150.02458 5.521512 -4.2242913

models.1.covar_module2.raw_mixture_scales f4 [4, 1, 4]
00000000: 5adc be46 b6c5 e640 cde2 c13d 8c1a fdbe
00000010: 95f8 b53f a2de 27c0 bf05 ccc0 ebff 65c0
00000020: 6cc2 0a42 9056 c440 5ad3 e9c0 b0fe 0bc1
00000030: 2eb0 1041 5b45 2cc0 8869 d9c0 b3e3 33c0
24430.176 7.2116346 0.09467087 -0.49434316 1.4216486 -2.6229634 -6.3757014 -3.593745
34.689865 6.1355667 -7.3070498 -8.74968 9.043013 -2.6917331 -6.794132 -2.8107727
