Database/multifidelity_database.pth (torch, 20139 bytes, 12 tensors)

models.0.covar_module1.raw_mixture_weights f4 [4]
-0.18653136 -1.7868205 -1.8703249 -0.79892135
00000000: 1402 3fbe 89b6 e4bf ce66 efbf 1c86 4cbf

models.0.covar_module1.raw_mixture_means f4 [4, 1, 7]
1116.7867 448.8196 1199.6315 533.2747 1289.256 2363.7349 1531.2957 678.836
2236.572 1157.2427 465.06815 1115.9291 927.8392 841.68 200.047 4526.5356
1476.0404 145.00108 739.56085 217.09708 2044.1516 655.46216 4829.1914 1919.7675
576.56824 2355.097 2096.1458 1673.4254
00000000: 2d99 8b44 e968 e043 35f4 9544 9551 0544
00000010: 3128 a144 c2bb 1345 7669 bf44 81b5 2944
00000020: 27c9 0b45 c4a7 9044 b988 e843 bb7d 8b44
00000030: b5f5 6744 856b 5244 080c 4843 4974 8d45
00000040: 4b81 b844 4700 1143 e5e3 3844 da18 5943
00000050: da84 ff44 94dd 2344 88e9 9645 8ff8 ef44
00000060: 5e24 1044 8d31 1345 5502 0345 9d2d d144

models.0.covar_module1.raw_mixture_scales f4 [4, 1, 7]
7.4747963 411.62103 -2.372164 -0.8905247 -1.3156842 -0.5123239 -1.3918234 13.333652
0.45138565 -2.7430751 -0.38608703 0.056010753 -2.4061115 -1.3877212 -1.5120405 0.58338886
-2.5100858 -1.9425763 -0.9318422 2.6426907 0.022584707 7.3868237 4.228336 -7.3681774
-0.3007764 3.232978 5.7269416 1.6930097
00000000: 8831 ef40 7ecf cd43 89d1 17c0 6df9 63bf
00000010: 5768 a8bf a927 03bf 4527 b2bf a356 5541
00000020: 051c e73e 8b8e 2fc0 33ad c5be 886b 653d
00000030: bbfd 19c0 d9a0 b1bf 8b8a c1bf f958 153f
00000040: 3fa5 20c0 57a6 f8bf 368d 6ebf d821 2940
00000050: 9003 b93c dc60 ec40 874e 8740 1cc8 ebc0
00000060: 5dff 99be 1de9 4e40 1b43 b740 8bb4 d83f

models.0.covar_module2.raw_mixture_weights f4 [4]
-0.98956096 -0.89981705 -1.0918915 -0.8338582
00000000: de53 7dbf 695a 66bf 1ac3 8bbf bb77 55bf

models.0.covar_module2.raw_mixture_means f4 [4, 1, 7]
220.21806 735.002 2609.9565 78.35025 1446.2024 547.2965 2328.801 4.822945
4259.547 837.23157 198.67647 1953.8202 2558.2568 1114.5045 736.523 585.97546
7.6614013 38.421757 135.98787 2099.8853 1343.2267 231.49301 2772.6733 2512.565
299.48502 879.44727 716.50793 1343.1304
00000000: d337 5c43 21c0 3744 4e1f 2345 54b3 9c42
00000010: 7ac6 b444 fad2 0844 d18c 1145 9155 9a40
00000020: 601c 8545 d24e 5144 2dad 4643 3f3a f444
00000030: 1ce4 1f45 2550 8b44 7921 3844 6e7e 1244
00000040: 332a f540 e1af 1942 e5fc 0743 2a3e 0345
00000050: 41e7 a744 367e 6743 c64a 2d45 0a09 1d45
00000060: 15be 9543 a0dc 5b44 8220 3344 2ce4 a744

models.0.covar_module2.raw_mixture_scales f4 [4, 1, 7]
4.447262 3.1401174 -4.9478197 -5.6042123 -4.848765 -4.1809697 -2.4715362 61.232
4.4855213 -3.583396 -3.9901614 -6.5463204 -3.9556108 -2.1302156 0.29917136 3.3858593
-3.2558367 -2.8439178 -6.1246114 -1.9801416 -3.3436005 1.340272 5.681124 -1.1682311
-3.58528 -5.165341 -3.6708374 -1.4628689
00000000: f84f 8e40 aff7 4840 8a54 9ec0 b555 b3c0
00000010: 1529 9bc0 81ca 85c0 a62d 1ec0 91ed 7442
00000020: 6489 8f40 5c56 65c0 ce5e 7fc0 757b d1c0
00000030: ba28 7dc0 7455 08c0 fd2c 993e ebb1 5840
00000040: a15f 50c0 c002 36c0 d1fc c3c0 4875 fdbf
00000050: 8dfd 55c0 088e ab3f c5cb b540 9988 95bf
00000060: 3a75 65c0 794a a5c0 00ef 6ac0 4a3f bbbf

models.1.covar_module1.raw_mixture_weights f4 [4]
-1.1519493 -1.3882587 -0.46087417 -1.1354402
00000000: 1373 93bf 76b2 b1bf b3f7 ebbe 1b56 91bf

models.1.covar_module1.raw_mixture_means f4 [4, 1, 7]
1098.1254 4715.7393 1920.7877 330.98285 1481.9385 2432.5435 72.46769 1159.103
1464.1302 2533.1028 347.74222 743.08167 1234.3632 2183.8206 717.73883 4995.361
1972.4153 414.8923 768.77185 1490.1929 550.98267 352.03714 3278.1533 2297.489
288.2381 2385.3237 928.3959 823.7709
00000000: 0344 8944 ea5d 9345 3519 f044 ce7d a543
00000010: 083e b944 b208 1845 75ef 9042 4ce3 9044
00000020: 2b04 b744 a551 1e45 01df ad43 3ac5 3944
00000030: 9f4b 9a44 217d 0845 496f 3344 e31a 9c45
00000040: 4a8d f644 3772 cf43 6631 4044 2c46 ba44
00000050: e4be 0944 c104 b043 74e2 4c45 d397 0f45
00000060: 7a1e 9043 2e15 1545 5619 6844 56f1 4d44

models.1.covar_module1.raw_mixture_scales f4 [4, 1, 7]
1.4698788 20.516304 -0.08341746 -3.9483685 -0.22436035 -0.9277518 -1.5191548 3.8175032
-2.7973082 -2.6473284 -2.794156 0.8831589 0.32286474 -5.2542925 5.136732 5.2024813
-0.14876111 -1.8289323 1.3373466 8.017236 -0.186248 34.932728 -3.410209 -1.3053058
-1.5767441 -1.5316187 -0.17191371 0.42901075
00000000: fd24 bc3f 6421 a441 c6d6 aabd 12b2 7cc0
00000010: b8be 65be 2481 6dbf aa73 c2bf f951 7440
00000020: 1907 33c0 d46d 29c0 74d3 32c0 b416 623f
00000030: 874e a53e 2a23 a8c0 1c60 a440 ba7a a640
00000040: d554 18be 741a eabf 2c2e ab3f 9946 0041
00000050: ccb7 3ebe 1dbb 0b42 dd40 5ac0 4314 a7bf
00000060: c0d2 c9bf 150c c4bf 260a 30be 4ca7 db3e

models.1.covar_module2.raw_mixture_weights f4 [4]
-1.177192 -1.2238873 -1.2455814 -1.2557243
00000000: 3aae 96bf 57a8 9cbf 366f 9fbf 93bb a0bf

models.1.covar_module2.raw_mixture_means f4 [4, 1, 7]
1260.3589 341.997 544.76 580.19525 234.24612 1880.7505 144.72975 192.3865
3779.1682 619.9716 154.9167 2570.8567 194.74199 960.66907 1143.898 1063.4791
679.27826 400.0489 578.7573 1517.1898 1070.4236 1079.627 720.5102 2222.0933
174.08423 792.0588 364.73587 81.708954
00000000: 7c8b 9d44 9eff aa43 a430 0844 7f0c 1144
00000010: 023f 6a43 0418 eb44 d1ba 1043 f262 4043
00000020: b132 6c45 2ffe 1a44 adea 1a43 b5ad 2045
00000030: f3bd 4243 d22a 7044 bcfc 8e44 55ef 8444
00000040: cfd1 2944 4206 c843 78b0 1044 13a6 bd44
00000050: 8ecd 8544 10f4 8644 a720 3444 7ee1 0a45
00000060: 9015 2e43 c303 4644 315e b643 fc6a a342

models.1.covar_module2.raw_mixture_scales f4 [4, 1, 7]
6.288396 2.775263 -4.78674 -5.543872 -2.6916275 4.1196513 -3.6873136 0.6755772
7.1786976 -4.5608263 -5.232484 -2.9704618 -1.2453653 -2.7305288 3.4262185 11.503574
-4.9767237 -4.0556946 -0.5822415 -3.4475288 -4.6445518 1.8962737 6.4463954 -5.2243257
-4.4759583 -0.8161847 -3.416938 -0.6899427
00000000: 8a3a c940 e99d 3140 f92c 99c0 6667 b1c0
00000010: a043 2cc0 2fd4 8340 f2fc 6bc0 a1f2 2c3f
00000020: e4b7 e540 4af2 91c0 8270 a7c0 0c1c 3ec0
00000030: 2168 9fbf fcc0 2ec0 2a47 5b40 a40e 3841
00000040: 5241 9fc0 40c8 81c0 c70d 15bf 50a4 5cc0
00000050: 2ba0 94c0 19b9 f23f df48 ce40 ad2d a7c0
00000060: 0d3b 8fc0 7bf1 50bf 1daf 5ac0 16a0 30bf
